…
{'eval_loss': 7.317101001739502, 'eval_runtime': 0.1859, 'eval_samples_per_second': 21.512, 'eval_steps_per_second': 5.378, 'epoch': 1.0}
{'eval_loss': 7.530413627624512, 'eval_runtime': 0.2005, 'eval_samples_per_second': 19.952, 'eval_steps_per_second': 4.988, 'epoch': 2.0}
{'eval_loss': 6.168426990509033, 'eval_runtime': 0.1645, 'eval_samples_per_second': 24.322, 'eval_steps_per_second': 6.081, 'epoch': 3.0}
{'train_runtime': 2.9806, 'train_samples_per_second': 4.026, 'train_steps_per_second': 1.007, 'train_loss': 4.799042383829753, 'epoch': 3.0}
OPTForCausalLM(
  (model): OPTModel(
    (decoder): OPTDecoder(
      (embed_tokens): Embedding(50272, 768, padding_idx=1)
      (embed_positions): OPTLearnedPositionalEmbedding(2050, 768)
      (final_layer_norm): LayerNorm((768,), eps=1e-05, elementwise_affine=True)
      (layers): ModuleList(
        (0-11): 12 x OPTDecoderLayer(
          (self_attn): OPTAttention(
            (k_proj): Linear(in_features=768, out_features=768, bias=True)
            (v_proj): Linear(in_features=768, out_features=768, bias=True)
            (q_proj): Linear(in_features=768, out_features=768, bias=True)
            (out_proj): Linear(in_features=768, out_features=768, bias=True)
          )
          (activation_fn): ReLU()
          (self_attn_layer_norm): LayerNorm((768,), eps=1e-05, elementwise_affine=True)
          (fc1): Linear(in_features=768, out_features=3072, bias=True)
          (fc2): Linear(in_features=3072, out_features=768, bias=True)
          (final_layer_norm): LayerNorm((768,), eps=1e-05, elementwise_affine=True)
        )
      )
    )
  )
  (lm_head): Linear(in_features=768, out_features=50272, bias=False)
)
Loss: 6.17
[2024-12-16 17:51:58,455] [INFO] [launch.py:347:main] Process 1963559 exits successfully.
